experiment_model.pth (torch, 3137 bytes, 5 tensors)

l1.weight f4 [3, 2]
-0.13422677 1.0800959 -1.8225989 -0.35552874 0.014023471 1.3064538
00000000: be72 09be 9540 8a3f ec4a e9bf dd07 b6be
00000010: b3c2 653c e139 a73f

l1.bias f4 [3]
0.51948196 -0.2813121 0.37122428
00000000: c5fc 043f 2408 90be 1c11 be3e

l2.weight f4 [3, 3]
0.09098477 -0.45775065 0.20073067 0.14240845 -0.41929457 0.365802 1.0989949 1.788174
1.0587521
00000000: 3956 ba3d 4b5e eabe 578c 4d3e 85d3 113e
00000010: c7ad d6be 664a bb3e ddab 8c3f e3e2 e43f
00000020: 3085 873f

l2.bias f4 [3]
-0.5107051 -0.44977465 -0.10732082
00000000: 92bd 02bf dd48 e6be 05cb dbbd

l3.weight f4 [1, 3]
-0.4096701 -0.6556743 -2.2984397
00000000: 48c0 d1be 45da 27bf a319 13c0
