experiment_model.pth (torch, 3137 bytes, 5 tensors)

l1.weight f4 [3, 2]
000000 3f 57 9a 3f e7 ee 4c bf ad 44 8f be 83 1c 2d 3f
       1.2057875 -0.80052036 -0.27982083 0.6762163
000010 5e ad c5 3f b9 9b 3d 3e
       1.5443532 0.18516435

l1.bias f4 [3]
000000 33 08 b6 3f fc 0e 2e 3f d5 6a 6f 3e
       1.4221252 0.67991614 0.23380597

l2.weight f4 [3, 3]
000000 1c 6e 0e bf 8d d1 55 3e 20 ab 28 3e 6a 2e 51 bf
       -0.55636764 0.20880719 0.16471529 -0.8171145
000010 a5 de 6e 3f ff 7c af 3f 9d 91 d8 3f 7d 56 7e be
       0.9330848 1.3710021 1.6919438 -0.2483768
000020 6a 7b 25 bf
       -0.6464144

l2.bias f4 [3]
000000 cd 04 03 bf 96 1e 7c 3f a4 b2 a9 3e
       -0.511792 0.9848417 0.33144104

l3.weight f4 [1, 3]
000000 94 04 de 3e fc 41 03 c0 d4 c8 f3 3f
       0.43362868 -2.0509024 1.9045663
