model_convex.pth (torch, 3089 bytes, 5 tensors)

l1.weight f4 [3, 2]
0.918597 -0.533798 -0.84310097 -0.47367468 0.009424282 1.1523993
00000000: 2c29 6b3f fca6 08bf 77d5 57bf 7d85 f2be
00000010: 4e68 1a3c d281 933f

l1.bias f4 [3]
0.010460522 0.009074229 -0.039270658
00000000: 9c62 2b3c 13ac 143c 45da 20bd

l2.weight f4 [3, 3]
-0.06165259 0.0010944633 0.3440728 -0.5966569 -0.6559229 -0.59337735 1.0223004 1.1259874
0.9841309
00000000: 6d87 7cbd 1874 8f3a 4f2a b03e 82be 18bf
00000010: 90ea 27bf 94e7 17bf bdda 823f 5b20 903f
00000020: 01f0 7b3f

l2.bias f4 [3]
-0.5309223 0.8617698 -0.6542139
00000000: 86ea 07bf f29c 5c3f 907a 27bf

l3.weight f4 [1, 3]
0.2744458 -1.0902338 1.0933944
00000000: 2984 8c3e c88c 8bbf 59f4 8b3f
