geobin/model.pth (torch, 3005 bytes, 5 tensors)

l1.weight f4 [3, 2]
-2.8641028 1.8768682 -0.0026032482 1.5714477 0.12557384 -0.17163512
00000000: 764d 37c0 383d f03f 429b 2abb 3325 c93f
00000010: 6e96 003e 1ec1 2fbe

l1.bias f4 [3]
-1.605608 0.8179376 0.6987564
00000000: 9084 cdbf 5c64 513f b3e1 323f

l2.weight f4 [2, 3]
-0.6123303 -0.17632984 0.063424475 2.3699565 1.0983108 -0.41817874
00000000: aec1 1cbf cf8f 34be b1e4 813d 5ead 1740
00000010: 7395 8c3f 861b d6be

l2.bias f4 [2]
-0.10865411 0.35798416
00000000: 0c86 debd b349 b73e

out.weight f4 [1, 2]
-0.44959208 -3.1897624
00000000: ef30 e6be 1125 4cc0
